Assets/Move2Target.onnx (onnx, 74037 bytes, 7 tensors)

network_body._body_endoder.seq_layers.0.weight f4 [128, 4]
0	0x3cd7ddee	0.026350942
1	0x3f37346c	0.71564364
2	0xbe01737a	-0.12641707
3	0xbea54376	-0.3227803
4	0x3f31102a	0.6916529
5	0x3e22179f	0.15829323
6	0xbe1de83f	-0.15420626
7	0xbf138ceb	-0.576369
8	0x3ec39845	0.3820211
9	0x3d859614	0.06522766
10	0xbeb239da	-0.34809762
11	0xbec8864f	-0.3916497
12	0xbf17390a	-0.5907141
13	0xbf469e0f	-0.7758493
14	0xbf0b50e9	-0.54420334
15	0xbe6a2a78	-0.22867763
16	0x3ee18678	0.44047904
17	0xbe4ed5ba	-0.20198718
18	0x3e83798f	0.2567868
19	0x3f91be59	1.1386214
20	0x3f8a1c86	1.0789955
21	0xbe188774	-0.14895421
22	0xbe828800	-0.25494385
23	0x3d7ed008	0.062210113
24	0x3efe6e00	0.49693298
25	0xbc2f961b	-0.01071694
26	0xbd650358	-0.055911392
27	0xbda52f90	-0.080657125
28	0x3ea8f0f5	0.32996336
29	0x3b9bd321	0.004755393
30	0x3f4f5152	0.8098346
31	0xbee6815e	-0.45020574
32	0xbf4e93f2	-0.80694497
33	0x3dfc6fcd	0.12326012
34	0x3f5479c6	0.8299831
35	0xbdd691ae	-0.10477005
36	0xbe750862	-0.23928979
37	0x3eaa9dc2	0.33323485
38	0x3eff8c4e	0.4991173
39	0xbde2a733	-0.11067047
40	0x3f8b7ea7	1.0898026
41	0x3f4f3f30	0.8095579
42	0xbdbb4ea6	-0.091458604
43	0x3e9e6665	0.30937496
44	0xbd4f4308	-0.050601035
45	0x3f26b450	0.65118885
46	0xbd480247	-0.048830297
47	0x3f0a4e92	0.5402614
48	0xbe0c2833	-0.1368721
49	0x3e789289	0.24274649
50	0x3f48de73	0.7846443
51	0x3ca8b20a	0.020592708
52	0x3f694443	0.91119784
53	0xbe5454d6	-0.20735487
54	0xbf92696b	-1.1438421
55	0xbf30e86f	-0.69104666
56	0x3eb59979	0.35468653
57	0xbc0d010f	-0.008606209
58	0x3f5bfc48	0.85931826
59	0xbdb45a9c	-0.08806345
60	0xbf356ea0	-0.70871925
61	0x3cb0e08b	0.021591445
62	0x3f45fd92	0.7734004
63	0xbf9da050	-1.2314548
64	0xbe89a40e	-0.26882976
65	0xbf3cc1c2	-0.7373315
66	0x3e87ca4d	0.2652153
67	0x3e7b2a46	0.24527845
68	0x3f40182e	0.75036895
69	0x3f2556aa	0.64585364
70	0xbf188941	-0.5958443
71	0x3f31e734	0.6949341
72	0x3e363bb0	0.17796206
73	0xbec555c4	-0.38541996
74	0x3e7fdfa0	0.2498765
75	0x3d1a0665	0.037603755
76	0x3e31c0d2	0.17358711
77	0x3ec8d449	0.3922446
78	0x3e9f9da5	0.3117496
79	0xbe4cc48c	-0.19996852
80	0xbd12a276	-0.035799466
81	0xbf2a2200	-0.6645813
82	0xbe1457ed	-0.14486666
83	0x3f0c3535	0.5476869
84	0xbf02f6c4	-0.51157784
85	0x3bb367f3	0.005475038
86	0xbec49a6e	-0.3839907
87	0xbe0e8bb8	-0.13920486
88	0x3e14827d	0.14502902
89	0x3e87ce6f	0.26524684
90	0x3e09fabf	0.13474558
91	0xbf055fa3	-0.52099055
92	0xbe8ed526	-0.27896994
93	0xbf3f30fc	-0.7468412
94	0x3f08a39b	0.5337464
95	0xbece8166	-0.40333098
96	0xbf2ca92d	-0.6744564
97	0xbe717343	-0.23579125
98	0x3f1fd47d	0.62433606
99	0x3d9762e2	0.07391907
100	0xbedb0544	-0.42777455
101	0x3ee917d1	0.45525983
102	0xbd88dde8	-0.0668295
103	0xbf3402bf	-0.7031669
104	0x3eee1943	0.46503648
105	0xbf787d43	-0.97066134
106	0x3d9441e0	0.07239127
107	0x3eb16ac1	0.3465176
108	0xbea0ca49	-0.3140433
109	0xbe4175a6	-0.18892536
110	0x3f37d675	0.7181161
111	0x3f63a9b2	0.8893081
112	0x3f126e52	0.57199585
113	0xbe9686b8	-0.29399657
114	0xbb855089	-0.0040684384
115	0x3f876529	1.0577747
116	0xbf17a3a3	-0.59234065
117	0xbd2d1ecd	-0.042265702
118	0xbe49730c	-0.19672793
119	0xbf76e65f	-0.9644527
120	0xbe1e967c	-0.15487093
121	0xbd8fdeaf	-0.070248954
122	0xbf0c0e42	-0.54709256
123	0x3eae861a	0.34086686
124	0xbf42a5a2	-0.76033986
125	0x3e12f406	0.143509
126	0x3e2d7669	0.16939701
127	0xbf018c17	-0.50604385
128	0x3f6c5afd	0.9232634
129	0xbf7ab512	-0.9793254
130	0x3f44ac33	0.76825255
131	0x3f42eb9d	0.7614077
132	0xbf946a3d	-1.1594921
133	0x3ec34f79	0.3814657
134	0x3e5e5fd2	0.2171624
135	0xbf660bd8	-0.8986182
136	0xbe954131	-0.291513
137	0x3f32b2bc	0.69803977
138	0x3d9f83a7	0.077887826
139	0xbeed1071	-0.46301606
140	0xbf114849	-0.56750923
141	0xbe968c24	-0.29403794
142	0xbeffee6b	-0.49986586
143	0xbedabe4c	-0.4272331
144	0x3d199457	0.037494984
145	0xbd85d2bd	-0.06534336
146	0x3e63cf76	0.22247109
147	0xbe24b42d	-0.16084357
148	0xbcb0a017	-0.021560712
149	0x3faaafaa	1.3334858
150	0x3e884f70	0.26623106
151	0x3ec55bce	0.38546604
152	0xbe45be99	-0.19310988
153	0xbe954d74	-0.29160655
154	0xbec59839	-0.385927
155	0x3f86f060	1.0542107
156	0x3f018106	0.505875
157	0xbdb6d8ed	-0.08928094
158	0xbe8ed56e	-0.2789721
159	0xbe12a024	-0.14318901
160	0xbe9097a4	-0.28240693
161	0xbf3aa976	-0.72914827
162	0x3ea8520a	0.3287509
163	0xbd7d2471	-0.06180233
164	0x3ec720d5	0.38892236
165	0xbf3d0fcb	-0.73852223
166	0x3f320301	0.69535834
167	0x3e22d868	0.15902865
168	0x3c0b898e	0.008516682
169	0x3d36907f	0.044571396
170	0x3d81c0dc	0.06335613
171	0x3e53c776	0.20681557
172	0x3f116fd7	0.5681128
173	0x3e72d3be	0.23713586
174	0xbbfa0b62	-0.0076307515
175	0x3e227824	0.15866143
176	0x3f2a386c	0.6649234
177	0x3c6014bb	0.0136768175
178	0x3e586062	0.21130517
179	0x3e899028	0.26867795
180	0xbf0a377d	-0.5399092
181	0x3f683293	0.9070217
182	0xbf02a0fb	-0.51026887
183	0xbe0c75e7	-0.13716851
184	0xbd3b8fc4	-0.045791402
185	0xbf8806a0	-1.0627022
186	0xbea47053	-0.32116947
187	0x3ed47108	0.41492486
188	0xbdbcfdcc	-0.092280954
189	0xbf56c259	-0.838903
190	0x3f34284b	0.7037398
191	0x3f077c0e	0.5292367
192	0xbe159820	-0.14608812
193	0xbe86d195	-0.26331773
194	0x3de2933c	0.11063239
195	0x3ebfe712	0.3748098
196	0xbe0dd25b	-0.13849775
197	0xbec68d0a	-0.3877948
198	0x3e6534b9	0.22383393
199	0x3f20d348	0.6282239
200	0x3f661c3c	0.8988683
201	0xbefd30ab	-0.49451193
202	0xbf091b8e	-0.5355767
203	0xbe550a56	-0.20804724
204	0xbeed448c	-0.4634136
205	0x3dc4f458	0.09616917
206	0x3e5cd9de	0.21567485
207	0xbe3a0325	-0.18165262
208	0xbea2cf2a	-0.3179868
209	0x3ee6a689	0.4504893
210	0xbeb972f9	-0.3622053
211	0xbe2f0a88	-0.17093861
212	0x3eaf4385	0.342312
213	0x3e3130db	0.17303793
214	0xbe851346	-0.25991267
215	0x3f16784c	0.5877731
216	0x3df17c09	0.11791236
217	0x3f2edf2f	0.683093
218	0xbdd1099f	-0.10206913
219	0xbe796a6f	-0.24357007
220	0xbcd6e453	-0.02623192
221	0xbef18a04	-0.4717561
222	0x3d25a1a0	0.04043734
223	0xbf0b9678	-0.5452647
224	0xbeb7d7ac	-0.35906732
225	0xbcf720db	-0.030167034
226	0xbfa7d689	-1.3112346
227	0x3f555170	0.8332739
228	0x3e592dfe	0.21208951
229	0xbea15f7f	-0.3151817
230	0x3f9ed6c2	1.2409289
231	0x3e3aa2d6	0.1822618
232	0x3e28e42d	0.16493292
233	0x3f3c3e0f	0.73532194
234	0xbe1375f1	-0.1440046
235	0x3cbb8651	0.022891195
236	0xbf18b815	-0.59655887
237	0xbeeff05d	-0.4686307
238	0x3be68570	0.00703495
239	0xbe0052e1	-0.12531616
240	0xbeb1f8ca	-0.34760123
241	0xbe037e9a	-0.12841263
242	0xbe83b7de	-0.25726217
243	0xbdf06b57	-0.117392235
244	0xbe9b9e2f	-0.30394122
245	0xbe7136b9	-0.23556031
246	0xbfbe7120	-1.4878273
247	0x3e8fe57a	0.28104764
248	0xbdba8489	-0.0910731
249	0x3ec90f6e	0.39269584
250	0x3f13ae73	0.57688063
251	0x3dc01d36	0.093805715
252	0xbe8bb51c	-0.27286613
253	0xbe6eac53	-0.23307924
254	0xbfa2e8fc	-1.2727351
255	0xbde6bd11	-0.1126653

network_body._body_endoder.seq_layers.0.bias f4 [128]
0	0x3c960d64	0.018316932
1	0x3c97d154	0.018532433
2	0x3c328854	0.010896761
3	0xbab349a9	-0.0013678569
4	0x3cf5e65f	0.030017076
5	0xbbef0bbe	-0.007295101
6	0xbc71839d	-0.014740852
7	0xbb6a914d	-0.0035792172
8	0x3c9abc58	0.018888637
9	0x3c50660c	0.012719642
10	0xbd001047	-0.031265523
11	0x3bd58a3b	0.0065167225
12	0xbb81776f	-0.003951005
13	0x3d0b6d61	0.03403986
14	0x3c1422a8	0.009041466
15	0xbb83dfca	-0.0040244805
16	0x3c0a546f	0.008442982
17	0x399d4a58	0.00030000764
18	0x3c27b242	0.010235371
19	0x3cd25f78	0.025680289
20	0x3b2fff44	0.002685503
21	0xbc9708c7	-0.018436803
22	0x3d0059a6	0.031335495
23	0x3b0dc224	0.002163061
24	0x3cd36ce5	0.02580876
25	0x3bf32bbf	0.0074209864
26	0x3c700a31	0.014650867
27	0x3c613d96	0.013747593
28	0x3ca15eb2	0.019698475
29	0xbc9cd042	-0.019142274
30	0x3ad1541b	0.00159705
31	0x3bd4cbe0	0.0064940304
32	0x3b4a8e75	0.0030907665
33	0x3cd2dd1b	0.025740197
34	0x3d1274de	0.035755984
35	0x3c690fe8	0.014224984
36	0xbcd40514	-0.025881328
37	0xbc0af774	-0.008481849
38	0xbc95b02d	-0.018272484
39	0xbbf0dead	-0.007350764
40	0x3cb1f150	0.021721512
41	0x3c2f1f77	0.010688654
42	0x3c7d93a8	0.0154770985
43	0xbc8a5bc5	-0.016889462
44	0xbc3cdd28	-0.011527337
45	0x3be932a4	0.0071166325
46	0x3bc265b1	0.0059325327
47	0x3bddfbc3	0.006774397
48	0xbc814ef6	-0.015784722
49	0x3bcc0291	0.006225892
50	0x3bcbb04e	0.0062160855
51	0x3c367f49	0.011138746
52	0x3c8f93db	0.017526558
53	0xbc3b3858	-0.011427008
54	0xbcb8f2ae	-0.022576656
55	0xbc70a895	-0.014688631
56	0x3c636395	0.013878723
57	0x3ce1ce64	0.027564235
58	0xbc942d25	-0.018087933
59	0x3c9bddb1	0.01902661
60	0x3c9545a1	0.018221678
61	0x3cf614ed	0.030039275
62	0x3c9a3d37	0.018828018
63	0x3cf2592e	0.02958354
64	0xbc0b335e	-0.008496134
65	0xbb91e343	-0.0044521405
66	0xbca5ae62	-0.020224754
67	0x3c862603	0.016375547
68	0x3cc24f1c	0.023719363
69	0x3c87ff30	0.016601175
70	0x38980e8b	7.250634e-05
71	0x3c9cfe75	0.019164303
72	0xbc25ce9d	-0.010120061
73	0x3c92ba5d	0.01791113
74	0x3c56e485	0.013116007
75	0x3c39fb01	0.011351348
76	0x3cc26342	0.02372897
77	0x3c4f878f	0.012666597
78	0xbc81922a	-0.015816767
79	0xbbfdf7cd	-0.0077504874
80	0xbc88d4f1	-0.0167031
81	0xbc44818c	-0.011993777
82	0x3cd635c7	0.02614869
83	0x3be156fe	0.0068768254
84	0x3c947c1b	0.018125584
85	0x3a2b2e6e	0.0006530051
86	0xbc3cd89d	-0.011526254
87	0x3be62f3d	0.007024674
88	0x3ada29e7	0.0016644568
89	0xbaa67a29	-0.0012701201
90	0xbb891163	-0.004182981
91	0x3d041180	0.03224325
92	0x3c6f2597	0.014596364
93	0xbbcee403	-0.006313802
94	0xbc7a59f6	-0.015280237
95	0x3c0fbc80	0.008772969
96	0xbcb00da8	-0.021490887
97	0xbc820c9d	-0.015875155
98	0x3be45b49	0.00696889
99	0xbc4b18e5	-0.012396072
100	0xbbc2a8f0	-0.005940549
101	0x3c963b10	0.01833871
102	0xbb650a89	-0.0034948906
103	0x3cbe946e	0.023264136
104	0xbbbe2338	-0.0058025382
105	0x3d044db9	0.032300685
106	0x3ca39aaf	0.01997122
107	0xbc4b829c	-0.012421276
108	0x3ad419c0	0.001618199
109	0x3bdd4211	0.0067522605
110	0x3bd85357	0.0066017318
111	0x3c1094d9	0.008824551
112	0xbc960ce3	-0.018316692
113	0xbb7c55a2	-0.003850319
114	0x3cb1dca7	0.02171166
115	0xbaa0689e	-0.001223821
116	0xbb5982bd	-0.0033189498
117	0xbc9b060e	-0.018923786
118	0xbc2efa24	-0.010679755
119	0xba461c30	-0.0007557301
120	0xbcb93996	-0.022610467
121	0xbbbec0e8	-0.005821336
122	0x3d04cc10	0.03242117
123	0x3cab2944	0.0208937
124	0x3b6520da	0.0034962208
125	0x3c43ab31	0.011942671
126	0xbbe284a3	-0.006912784
127	0x3aeabfa8	0.0017909901

network_body._body_endoder.seq_layers.2.weight f4 [128, 128]
0	0xbb5ac07b	-0.0033378887
1	0xb8b59c44	-8.659859e-05
2	0xbe0f696c	-0.14005059
3	0xbdb97d0f	-0.09057056
4	0xbd6b0ed4	-0.057387188
5	0x3cc81394	0.024423398
6	0xbdeadaa3	-0.11467483
7	0x3de07c15	0.10961167
8	0x3df1f800	0.1181488
9	0x3d7ca151	0.06167728
10	0x3d9151b9	0.070956655
11	0x3e212ecb	0.15740506
12	0x3e1052f3	0.14094143
13	0xbdaa6fe4	-0.08322123
14	0xbc3aabdd	-0.011393514
15	0xbcaab02e	-0.020835962
16	0xbdce86d7	-0.100843124
17	0x3e28e486	0.16493425
18	0xbc88d302	-0.016702179
19	0xbd4cfe2f	-0.050047096
20	0xbd187f00	-0.03723049
21	0xbd2b4e84	-0.041822925
22	0x3e25e78c	0.1620161
23	0x3ce72412	0.028215442
24	0xbcf276b4	-0.029597618
25	0x3d94f338	0.07272953
26	0x3e58aa19	0.21158637
27	0xbc2f757d	-0.010709164
28	0xbe0a79eb	-0.1352307
29	0xbd701a68	-0.058618933
30	0xbdde3115	-0.108492054
31	0xbd84c0c4	-0.064820796
32	0x3d7bcc7c	0.06147431
33	0xbde45f67	-0.11151009
34	0x3cf21cad	0.02955469
35	0x3bd8d80b	0.006617551
36	0x3db00dd5	0.08596388
37	0xbe23af76	-0.15984902
38	0x3c7b46b0	0.015336677
39	0xbbadbad2	-0.0053018117
40	0x3da680e8	0.08130056
41	0xbd162ce6	-0.036663912
42	0xbdc53e3d	-0.09631012
43	0xbd0302cd	-0.031985093
44	0x3c96a673	0.018389916
45	0x3d889dd1	0.06670726
46	0x3c0fb4c4	0.008771125
47	0xbdc70f7d	-0.09719751
48	0x3daed30e	0.08536349
49	0xbdc8dcc0	-0.0980773
50	0xbe098556	-0.1342977
51	0xbd2cb648	-0.042166024
52	0x3da49251	0.0803572
53	0x3d8b7c07	0.06810766
54	0x3d2c39bc	0.042047247
55	0xbe2bc579	-0.16774549
56	0x3e2d9781	0.16952325
57	0xbc42a1eb	-0.011879425
58	0xbd829e4d	-0.0637785
59	0xbdf1c0f8	-0.11804384
60	0xbe00efcb	-0.12591474
61	0xbe0589e8	-0.13040888
62	0x3d96fb39	0.07372136
63	0x3b0e15f9	0.0021680577
64	0xbe0bc86b	-0.13650672
65	0xbdcfe64c	-0.101513475
66	0xbe799666	-0.24373779
67	0x3dc2512e	0.0948814
68	0x3c2ca497	0.010537288
69	0x3dbbf2e0	0.09177184
70	0xbc820192	-0.01586989
71	0x3defd66d	0.1171082
72	0xbd59a909	-0.05313972
73	0x3d923062	0.071381345
74	0x3c5bf648	0.013425417
75	0x3d266fc2	0.040633924
76	0x3d982a26	0.07429914
77	0xbc31eaf9	-0.0108592445
78	0xbcf479cc	-0.029843234
79	0x3dfc0ea3	0.12307479
80	0xbcc13f07	-0.023589624
81	0xbdd42637	-0.103588514
82	0x3d8c620f	0.06854641
83	0xbc6366ec	-0.013879519
84	0x3dfabf7d	0.12243555
85	0xbd235892	-0.03987939
86	0xbd9e11f4	-0.07718268
87	0x3e13ea2f	0.14444803
88	0xbe0182a1	-0.12647487
89	0x3ce7dca9	0.028303461
90	0xbcb8980f	-0.022533445
91	0xbd4cfd97	-0.05004653
92	0xbc55c55f	-0.013047545
93	0xbd65a5f1	-0.056066457
94	0x3cae5dc6	0.021284949
95	0xbd217e3d	-0.03942703
96	0x3c9fb310	0.019494563
97	0xbdbdaa9c	-0.09261057
98	0x3e1f48a6	0.15555057
99	0xbda2cf48	-0.07949692
100	0xbd9ba3a4	-0.07599571
101	0xbd8a9c36	-0.06768076
102	0x3d9a4c8e	0.07534133
103	0xbdfaf83f	-0.122543804
104	0x3dffae0f	0.12484371
105	0x3dd5918b	0.10428151
106	0x3c5da271	0.013527499
107	0x3dbed8a7	0.09318667
108	0xbd8c481d	-0.06849692
109	0xbc09368e	-0.008374823
110	0xbd8ae34d	-0.067816354
111	0x3bb9bde3	0.005668388
112	0xbe1d4235	-0.15357287
113	0x3e488875	0.19583304
114	0xbcc9605b	-0.024582079
115	0xbdd801a6	-0.105471894
116	0x3d55c331	0.052188102
117	0x3dc10489	0.09424693
118	0xbd6df946	-0.058099054
119	0xbe34d939	-0.17660989
120	0x3ddf89bd	0.10914943
121	0xb983f674	-0.0002516989
122	0x3d0b7353	0.03404553
123	0xba60c8d7	-0.00085748493
124	0xbdb7ad5e	-0.08968614
125	0x3ddcb9d4	0.107776314
126	0xbdc850a9	-0.0978101
127	0xbb5e7be8	-0.0033948366
128	0xbe42a7df	-0.1900935
129	0xbca05f4f	-0.019576697
130	0x3d90563e	0.070476994
131	0x3bba3b59	0.0056833443
132	0x3d0aaad8	0.033854336
133	0x3b851640	0.0040614903
134	0xbe0470dc	-0.12933677
135	0x3a9ec2cd	0.0012112499
136	0xbd7a1ee7	-0.061064627
137	0x3c3186a6	0.010835325
138	0xbd171400	-0.036884308
139	0xbd920a9b	-0.07130929
140	0xbdb79bb6	-0.089652464
141	0xbd39649b	-0.04526196
142	0xbdb13844	-0.0865331
143	0xbdb3c53c	-0.08777854
144	0x3d40cef9	0.047072385
145	0x3e2c295f	0.16812657
146	0x3d9ad8cc	0.07560882
147	0xbe16958d	-0.14705487
148	0xbd80b2c7	-0.06284099
149	0xbe1216fc	-0.1426658
150	0x3c68dabe	0.014212308
151	0xbd48e90c	-0.049050376
152	0xbadf036a	-0.0017014567
153	0x3e0ac2d5	0.13550885
154	0x3d7b9450	0.06142074
155	0xbe0a6549	-0.135152
156	0x3e083803	0.13302617
157	0xbda872de	-0.08225034
158	0x3dee26e9	0.11628515
159	0xbe0cb2da	-0.13740101
160	0xbe0d6d81	-0.13811304
161	0xbdb82324	-0.089910775
162	0x3e11b034	0.14227372
163	0x3b80166b	0.0039089224
164	0x3d25f0a4	0.040512696
165	0x3da7e801	0.08198548
166	0x3d762d78	0.060101956
167	0x3dbd372b	0.09239038
168	0x3d58d1b8	0.05293438
169	0xbd68d76e	-0.056846075
170	0xbd58ea31	-0.052957717
171	0xbd56dc84	-0.052456394
172	0xbd941aa5	-0.072316445
173	0x3d726c63	0.059185397
174	0x3db7103e	0.08938645
175	0xbcd31086	-0.025764715
176	0x3d6b068a	0.057379283
177	0xbd75e855	-0.060036022
178	0xbdbebb02	-0.09313013
179	0xbd4cfbf0	-0.050044954
180	0x3e1cf047	0.15326034
181	0x3dd86496	0.1056606
182	0x3d8467ca	0.06465109
183	0x3bdff2b7	0.006834354
184	0xbe1990b0	-0.149966
185	0x3b6047ed	0.0034222559
186	0x3e17f3f4	0.14839154
187	0x3b80f764	0.0039357413
188	0xbc67b483	-0.014142158
189	0xbdc009a0	-0.09376836
190	0xbe149226	-0.14508876
191	0x3dcf3bde	0.10118841
192	0x3d595b5f	0.053065654
193	0xbdbd1d59	-0.09234113
194	0x3bc3232b	0.00595512
195	0x3e09e947	0.13467894
196	0xbe417c4f	-0.18895076
197	0x3d792129	0.06082264
198	0xbb49de89	-0.0030802807
199	0x3d0c51d6	0.034257732
200	0xbdb66188	-0.08905321
201	0xbd7156a0	-0.058920503
202	0x3ea108dd	0.31452075
203	0x3dc01a07	0.09379964
204	0xbd8e6a82	-0.069539085
205	0xbc85fb8b	-0.016355297
206	0xbd0eed33	-0.03489418
207	0x3deb90e1	0.11502243
208	0xbbe7da9e	-0.0070756217
209	0xbde32f84	-0.11093047
210	0x3d872bc3	0.06600144
211	0x3d037749	0.03209618
212	0xbd9a82ee	-0.07544504
213	0xbd8d9527	-0.06913214
214	0x3dc504c2	0.09620048
215	0x3da1b5a7	0.078959756
216	0x3dc67f0a	0.096921995
217	0x3c461887	0.012090809
218	0x3d45c8bc	0.04828714
219	0xbe2a3e5e	-0.16625354
220	0x3dd5377a	0.10410972
221	0x3d97cc8a	0.074120596
222	0xbd068696	-0.032843195
223	0xbd02a150	-0.03189212
224	0xbbb78a93	-0.005601236
225	0x3d192f73	0.037398767
226	0x3d8be2e4	0.06830385
227	0xbc85307f	-0.016258476
228	0x3d32733a	0.04356692
229	0xbe143740	-0.14474201
230	0xbc65818d	-0.014007938
231	0x3db6618d	0.08905325
232	0xbd2b40b7	-0.041809764
233	0xbdfc96db	-0.12333461
234	0xbde94423	-0.11389949
235	0xbcb9b9f3	-0.022671675
236	0x3e23838e	0.15968153
237	0xbe028692	-0.12746647
238	0x3e1150cc	0.14190978
239	0x3e2ac7aa	0.16677728
240	0xbd0cccaa	-0.03437487
241	0xbd9e577a	-0.077315286
242	0x3e343d47	0.176015
243	0x3e1c209e	0.15246817
244	0xbe0b262d	-0.13588782
245	0x3ce2e88c	0.027698778
246	0x3d993859	0.074814506
247	0x3dfa81aa	0.12231763
248	0xbe3929f1	-0.18082406
249	0x3e33cb5b	0.17558043
250	0x3cf6050e	0.030031707
251	0x3cfddd8a	0.030989427
252	0xbe232958	-0.1593374
253	0x3df66334	0.1203064
254	0xbc28f95a	-0.010313356
255	0xbdbb4180	-0.091433525

network_body._body_endoder.seq_layers.2.bias f4 [128]
0	0x3cadde42	0.021224145
1	0xbc30742d	-0.010769886
2	0xbbe1394e	-0.0068732863
3	0x3cc4ea4b	0.0240375
4	0x3caf3856	0.021389168
5	0x3c0606fc	0.008180376
6	0xbc32f806	-0.010923391
7	0xba99b3cb	-0.0011726556
8	0xbc72d845	-0.0148220705
9	0xbc7fc168	-0.0156100765
10	0xbc76d8dc	-0.015066352
11	0xbc7bafd3	-0.015361744
12	0xbc862132	-0.01637325
13	0x39e40357	0.00043490037
14	0x3c169bbd	0.009192404
15	0x3c3afae4	0.011412356
16	0x3cef01db	0.02917569
17	0xbca2ba47	-0.019864215
18	0xbc93b288	-0.018029466
19	0x3c8b06e8	0.016971067
20	0xbc974d73	-0.018469548
21	0xbc1a6f96	-0.009426018
22	0xbbf5900e	-0.0074939793
23	0x3ac44f3f	0.001497723
24	0x3beabd98	0.0071637146
25	0x3beec4a3	0.0072866245
26	0x3cab99ae	0.020947304
27	0xbbd0acdd	-0.006368263
28	0xbcc8bd9c	-0.024504475
29	0xbc79fcf4	-0.015258063
30	0x3ca663db	0.020311287
31	0x3c9af764	0.018916793
32	0xbc8a06f5	-0.01684902
33	0xbb16a5f2	-0.0022987095
34	0x3c2c1bd9	0.010504686
35	0xbc2521c9	-0.010078856
36	0x3c400799	0.011720561
37	0x3c603be3	0.013686153
38	0xbc586f51	-0.013210134
39	0xbb83e7dd	-0.004025443
40	0x3c7780cd	0.015106392
41	0x3be9313a	0.007116464
42	0x3c8bc28a	0.017060537
43	0x3c9da71f	0.019244729
44	0x3c93f386	0.018060457
45	0x3c924962	0.017857257
46	0x3c83dceb	0.016096553
47	0xbc0a3b2a	-0.008436957
48	0xbbd4076e	-0.0064706123
49	0xbc28902c	-0.0102882795
50	0xbc14e330	-0.009087369
51	0x3c9c306d	0.01906606
52	0x3c9e7607	0.01934339
53	0xbc2d00e5	-0.010559295
54	0x3c9fbfcf	0.019500641
55	0x3c6b641a	0.014367128
56	0x3b509f46	0.0031833216
57	0x3b1cbb59	0.002391538
58	0x3afa2b05	0.0019086307
59	0xbb2cbd09	-0.002635779
60	0x3c7598b1	0.014990018
61	0xbc40c963	-0.011766764
62	0x3c9a6a64	0.01884956
63	0xbc99e79e	-0.018787201
64	0xbc48b7c6	-0.012250846
65	0xbca55415	-0.020181695
66	0xb9a0e06c	-0.00030684785
67	0xbcc0d1b6	-0.023537498
68	0xbc81edcc	-0.01586046
69	0x3c5fb032	0.013652848
70	0xbc697605	-0.014249329
71	0x3c8150e4	0.015785642
72	0xbc70eada	-0.0147044305
73	0xbcbb37ba	-0.022853721
74	0x3c4db325	0.012554918
75	0xbc42cfb0	-0.011890337
76	0xbbf7bd53	-0.007560411
77	0x3c42d2ab	0.0118910475
78	0xbc3d1bb4	-0.0115422495
79	0x3ce2932b	0.027658066
80	0xbc8d71aa	-0.017266113
81	0xba8d01df	-0.0010758004
82	0xbc093a8b	-0.008375774
83	0x3c776358	0.015099369
84	0x3cb0310d	0.021507764
85	0xbbeb2f50	-0.007177271
86	0xbc52058d	-0.012818706
87	0x3bdb7fd5	0.0066985884
88	0x3ce9d757	0.028545065
89	0xbbbec2cb	-0.005821561
90	0xbb9556ab	-0.004557451
91	0x3c9d591a	0.019207526
92	0x3d061b84	0.032741085
93	0x3b2b624c	0.0026151119
94	0xbc8c59c0	-0.01713264
95	0xbca3711a	-0.019951392
96	0xbc261974	-0.010137904
97	0x3c9511de	0.018196996
98	0x3b71575e	0.0036825757
99	0xbc6f1238	-0.014591746
100	0xbb87c049	-0.004142795
101	0x3c908845	0.017643103
102	0x3c56c39b	0.013108159
103	0x3c1e89ac	0.009676378
104	0x3c3982aa	0.011322657
105	0x3cbcc98c	0.023045324
106	0xbcac2be0	-0.021017015
107	0x3cc813e0	0.02442354
108	0xbc31716b	-0.010830264
109	0x3cdc7268	0.026910022
110	0xbb2fe5e3	-0.0026839904
111	0xbc5d5b74	-0.013510574
112	0x3cb11289	0.021615284
113	0x3b5e8f0d	0.0033959777
114	0x3c266208	0.010155208
115	0xbbf4f948	-0.0074760057
116	0x3b4ec8e4	0.0031552846
117	0x3c6ddd5e	0.01451811
118	0x3cc9a7db	0.024616173
119	0x3c54c55f	0.01298651
120	0xbc0102a4	-0.007874165
121	0x3c704694	0.014665265
122	0x3b19e9c2	0.0023485278
123	0x3ca54627	0.020175053
124	0x3c85902c	0.016304098
125	0x3c888969	0.016667085
126	0xbca4fb3f	-0.020139335
127	0xbc6fb79d	-0.014631179

action_model._continuous_distribution.log_sigma f4 [1, 2]
0	0xbca58445	-0.020204673
1	0xbbe625eb	-0.007023563

action_model._continuous_distribution.mu.weight f4 [2, 128]
0	0x3c74c50f	0.014939561
1	0xbb1fa9cb	-0.002436268
2	0xbd83cd37	-0.06435626
3	0x3c8610ab	0.01636537
4	0x3d390854	0.045173958
5	0xbc4503db	-0.012024845
6	0xbd37cfb1	-0.044875804
7	0xbc1fa5d9	-0.009744131
8	0xbcdf7c9b	-0.027281096
9	0xbc918e38	-0.01776801
10	0xbc3386b0	-0.010957405
11	0xbd2f1fc4	-0.042754903
12	0xbc315d51	-0.010825471
13	0xb98dc295	-0.0002703859
14	0xbbad16fe	-0.005282282
15	0x3c7089a4	0.014681254
16	0x3c0fa5ca	0.008767555
17	0xbd447c60	-0.047970176
18	0xbc84261e	-0.016131457
19	0x3c5f9a27	0.013647593
20	0xbc82a0c9	-0.015945809
21	0xbcc982ab	-0.02459844
22	0xbbb91246	-0.0056479303
23	0xbd18cd8b	-0.037305396
24	0x3c18f0fa	0.009334797
25	0x3bba06c7	0.0056770775
26	0x3be4ddde	0.0069844564
27	0xbb79730f	-0.0038062965
28	0xbd1c17fa	-0.038108803
29	0xbd3fbe6f	-0.04681247
30	0x3b9b53cc	0.004740214
31	0x3d05744d	0.032581616
32	0xbd36e17a	-0.044648625
33	0xbbe7c6fd	-0.007073282
34	0xbc76b16b	-0.015056948
35	0xbbee27eb	-0.007267942
36	0x3cdf07fc	0.027225487
37	0x3a835833	0.0010020792
38	0xbcc7ece2	-0.024404947
39	0xbd571eb2	-0.052519508
40	0x3d10769f	0.035269376
41	0xbd28c156	-0.041200005
42	0x3c46e6c4	0.01213998
43	0x3c58f1c8	0.013241239
44	0x3c5b8bb7	0.01340001
45	0x3c48318c	0.012218844
46	0x3c8a93dc	0.016916208
47	0xbcd7a948	-0.026325837
48	0xbbb48aea	-0.005509724
49	0xbc2f2e4a	-0.0106921885
50	0xbc3684eb	-0.011140089
51	0x3d110c65	0.03541221
52	0x3c642088	0.013923772
53	0xbd180352	-0.03711254
54	0x3d03aede	0.03214919
55	0x3c3810d2	0.011234479
56	0xba18cdc5	-0.0005829002
57	0x3b341e1c	0.0027483767
58	0x3bc18ee9	0.005906929
59	0x3b219af8	0.002465902
60	0x3d0acc26	0.033886097
61	0xbc8d17c5	-0.017223248
62	0x3cfcae9b	0.030844977
63	0xba9b159d	-0.0011832003
64	0xbc959fe8	-0.018264726
65	0xbd290770	-0.04126686
66	0xbbf1e937	-0.0073825377
67	0xbcfa7e68	-0.030577853
68	0xbcadc689	-0.021212833
69	0xbd904584	-0.07044509
70	0xbbc6d77d	-0.0060681687
71	0xb9dd038d	-0.0004215505
72	0xbc57a120	-0.013160974
73	0xbc7a467d	-0.015275595
74	0x3c39ede5	0.011348222
75	0xbd4fac7f	-0.050701614
76	0xbd6620f6	-0.056183778
77	0x3c90aa41	0.017659308
78	0xbc4471d8	-0.011990033
79	0x3c71b439	0.014752441
80	0xbd069d2d	-0.03286474
81	0xbb66d47e	-0.003522187
82	0xbb44083d	-0.0029912137
83	0xbbf75aec	-0.0075486805
84	0x3c342da3	0.010997209
85	0xbc9ec6f0	-0.01938197
86	0xbcb4895c	-0.022038154
87	0x3a473c54	0.0007600237
88	0x3d0cf305	0.03441145
89	0xbd04bdbb	-0.032407504
90	0xbc2e6ddb	-0.010646309
91	0x3c429a9a	0.01187768
92	0x3d268b59	0.040660236
93	0x3b5b0933	0.0033422231
94	0xbce8d91d	-0.02842384
95	0xbd1290bd	-0.035782564
96	0xbd059b42	-0.03261877
97	0x3ca4aab0	0.020100921
98	0xbd574088	-0.052551776
99	0xbcacc96b	-0.021092137
100	0xbaad832f	-0.0013237948
101	0x3c584572	0.013200151
102	0x3cc41cd1	0.023939522
103	0xbcfebecd	-0.03109684
104	0x3bca3251	0.006170549
105	0x3cfd039d	0.030885512
106	0xbd2b6e30	-0.04185313
107	0x3d5910de	0.0529946
108	0xbc8bef6b	-0.017081937
109	0x3d11fc94	0.035641268
110	0xbc87b1bd	-0.016564244
111	0xbc23d85c	-0.010000315
112	0x3cb05cba	0.02152859
113	0x3b91dcd1	0.004451372
114	0x3c4befe2	0.012447329
115	0xba9b6821	-0.0011856594
116	0x3b8b0a62	0.004243181
117	0x3bc7debe	0.006099551
118	0x3d1d6f34	0.03843613
119	0x3c575eee	0.013145192
120	0xbc5176e7	-0.012784696
121	0x3b6909b3	0.003555876
122	0xbd4a45d6	-0.049383007
123	0x3cf472f1	0.029839965
124	0x3ca6ff37	0.020385368
125	0x3cd93422	0.026514117
126	0xbcc470d2	-0.023979578
127	0xbca15705	-0.019694814
128	0xbb724d98	-0.003697252
129	0xbc20a36a	-0.009804586
130	0xbd45be8d	-0.048277427
131	0xbd396abc	-0.045267805
132	0x3c7cafb2	0.015422748
133	0xbd11bb43	-0.035578977
134	0xbb5d5595	-0.0033772935
135	0x3c8c06c8	0.017093077
136	0x3bd42d3f	0.0064751203
137	0x3bbcaf36	0.0057581915
138	0x3c56d4df	0.013112276
139	0x3aed6a97	0.0018113431
140	0x3c40617e	0.011741994
141	0xbcbeef8e	-0.023307588
142	0x3d71e33a	0.05905459
143	0xbba41a7d	-0.0050080405
144	0xbca12ce5	-0.019674728
145	0xbc32b9fa	-0.010908598
146	0xbb09c443	-0.0021021522
147	0x3cb38775	0.021915177
148	0x3bcbfbe1	0.0062250947
149	0x3c9c563e	0.019084092
150	0x3cbea095	0.02326993
151	0xbcd8fcff	-0.026487825
152	0xbcbefd11	-0.02331403
153	0x3c330385	0.010926132
154	0x3aa6d46d	0.0012728103
155	0x3c7115a4	0.014714632
156	0x3c8a3e6d	0.01687547
157	0xbc6344ad	-0.013871354
158	0xbd4282d1	-0.047488037
159	0x3bfe8fd9	0.007768613
160	0xbceef533	-0.029169654
161	0xbc78dd4b	-0.015189479
162	0x3d59a99d	0.05314027
163	0x3bb24ccc	0.005441284
164	0xbc89f208	-0.016839042
165	0x3d3afd70	0.045651853
166	0xbc37441b	-0.011185671
167	0x3b9b6c6f	0.004743151
168	0x3cb63b03	0.022244936
169	0xbd341d20	-0.04397309
170	0x3b410f56	0.0029458604
171	0xb9bb915d	-0.00035775724
172	0x3b299028	0.0025873277
173	0xbabf0969	-0.0014574948
174	0xbce766f7	-0.02824734
175	0x3c8ecab2	0.017430637
176	0x3cb4a7ab	0.022052607
177	0xbcb3ba30	-0.021939367
178	0xbc9996f6	-0.018748742
179	0x3c4195aa	0.011815468
180	0x3d051b98	0.03249702
181	0x3c03ed64	0.008052204
182	0xbccc58b8	-0.024944648
183	0x3c0f0b8f	0.008730783
184	0x3cb4b6c1	0.0220598
185	0x3ccea485	0.025224933
186	0xbcd778ff	-0.026302813
187	0xbd1145b2	-0.035466857
188	0x3bb0880b	0.0053873113
189	0x3cb83863	0.022487825
190	0x3c5b43f2	0.013382899
191	0x3b99e296	0.0046962006
192	0x3c78f922	0.015196117
193	0x3bad4d6c	0.0052887704
194	0x3c82bfc0	0.015960574
195	0x3bf629f6	0.0075123264
196	0x3c2cc634	0.010545302
197	0xbaa32f55	-0.0012450019
198	0x3c0b53b9	0.008503848
199	0x3cc389d6	0.023869436
200	0x3c0df116	0.008663436
201	0x3cefff24	0.029296465
202	0xbb297822	-0.0025858958
203	0xbc607f83	-0.013702276
204	0xbd2f742e	-0.042835407
205	0xbcc3cde0	-0.02390188
206	0xbcc29d5f	-0.023756681
207	0xbb878fe3	-0.0041370257
208	0xbbc83d19	-0.006110799
209	0x3c9f1cdd	0.019422943
210	0xbc5bc584	-0.013413791
211	0xbd2d8ea0	-0.042372346
212	0xbd21a727	-0.03946605
213	0xbce3becc	-0.02780094
214	0xbcf55854	-0.029949345
215	0x3cf71377	0.030160649
216	0xbcbfd02a	-0.02341469
217	0x3d0b61cf	0.034028824
218	0x3d3bda87	0.0458627
219	0x3d1c403e	0.038147204
220	0xbbbc3985	-0.0057441615
221	0xbc411cbc	-0.011786636
222	0x3c4e3978	0.012586944
223	0xbc1b89bb	-0.009493287
224	0x3ba001fd	0.0048830495
225	0xbca7ccf1	-0.020483466
226	0x3d507114	0.05088909
227	0x3c9e1e9e	0.019301709
228	0xbd059426	-0.03261199
229	0xbb84e71c	-0.0040558707
230	0xbcb90f0d	-0.022590185
231	0xbcaf16c6	-0.021373164
232	0x3d53db78	0.051722974
233	0xbac49933	-0.001499927
234	0xbb7ad462	-0.0038273563
235	0x3cb577ce	0.022151854
236	0xbcec9765	-0.028880784
237	0xbced6631	-0.028979393
238	0x3d14a30f	0.036288317
239	0xbc2fa11d	-0.010719565
240	0x3cbd64b8	0.023119316
241	0xbd09e414	-0.033664778
242	0x3c80a781	0.015704872
243	0x3be9a199	0.0071298596
244	0x3c1b2613	0.009469527
245	0xbc956b15	-0.018239537
246	0xbbdb9788	-0.0067014135
247	0xbce43ebe	-0.027861949
248	0xbbb1149e	-0.005404069
249	0x3cf1d9cb	0.029522797
250	0x3c7a91b0	0.015293524
251	0xbb746d74	-0.0037296684
252	0x3c402d1a	0.011729503
253	0xbc798e0c	-0.0152316205
254	0x3b5b54cf	0.0033467298
255	0x3c66deee	0.0140912365

action_model._continuous_distribution.mu.bias f4 [2]
0	0x3c9f1314	0.019418277
1	0xb8410706	-4.6021327e-05
